autoencoder.pt (torch, 179973 bytes, 24 tensors)

weight f4 [64, 29]
000000 31 13 bb bd d3 7a ff bd 56 42 89 be 1b b2 a6 3d
       -0.0913452 -0.12474599 -0.26808423 0.0813944
000010 06 f5 ed bd ab fc 73 bd 80 f9 0c 3c 0d d2 04 be
       -0.11619 -0.059567135 0.008604407 -0.12970753
000020 13 15 e3 3d 94 4e 3c 3d 5d cf c4 3d 79 ab 25 3d
       0.11088004 0.045973375 0.09609864 0.040446732
000030 94 1e 0c ba 7e 1d c3 bd 4b 11 f8 3d a5 46 05 3e
       -0.00053451327 -0.095271096 0.12112673 0.1301523
000040 9c 00 49 3d ae 07 33 be af 37 2e bd 13 fe 69 be
       0.049072847 -0.17483398 -0.042533573 -0.22850828
000050 b6 71 df bd 45 af 87 bd 29 84 19 bf cf 5c f6 3b
       -0.109103605 -0.06625227 -0.59967285 0.007518388
000060 0f ff 11 be 9a 00 38 be 4d 81 a3 bb a0 49 0c bd
       -0.14257453 -0.1796898 -0.004989779 -0.0342499
000070 95 10 b9 bd 81 66 a0 bc 42 ba 1f be d2 76 43 3e
       -0.09036366 -0.019580128 -0.15598395 0.19088295
000080 17 3d d7 bd 8b 49 6f 3e e0 6b af bd cd 9d 6e be
       -0.10509699 0.23367898 -0.085654974 -0.23302384
000090 55 9e 14 bd 57 e9 68 bd ba 12 ee bc 66 43 ba bd
       -0.03628381 -0.056863155 -0.029061664 -0.090948865
0000a0 3c 53 8a 3d 2a 3a 95 3e c3 78 8e 3e 33 2c a0 bd
       0.06754157 0.29145938 0.2782651 -0.0782093
0000b0 0d 4c a2 be c1 27 c7 bd 40 73 f5 3e 88 61 4e be
       -0.31698647 -0.09724379 0.4793949 -0.20154393
0000c0 fb c3 2f 3e c4 84 0a bd 1e 64 4c be b6 84 dc 3d
       0.17164604 -0.03381802 -0.19960067 0.107675
0000d0 ca ea d8 bd 27 c9 dc bb 44 f0 0a 3e 2d 6d ab 3d
       -0.105916575 -0.0067378464 0.13568217 0.08370433
0000e0 1b 9c 8b bd 8a c2 ac 3d 0c d5 34 3c be 96 75 be
       -0.06816884 0.08435543 0.011037122 -0.23983285
0000f0 92 04 1a bd 50 55 78 bd 4c 1d c5 bd 43 17 8a 3a
       -0.037602015 -0.060628235 -0.096247286 0.0010535497
000100 ef 06 74 3e 17 e5 9c 3e 49 b2 62 be 3a b4 57 3d
       0.2383077 0.30643532 -0.22138323 0.05266211
000110 17 79 f6 3c eb 2a 34 3d 87 f1 87 bd 53 48 04 be
       0.030087037 0.043986242 -0.066378646 -0.12918214
000120 76 0f 9a bd d9 66 fb 3e bb 7b 66 3e da 7e ab be
       -0.0752248 0.49101904 0.22508137 -0.33495218
000130 30 25 8b 3d 89 9b 5a 3e cb 8b 1f 3e 1d 62 05 3e
       0.06794202 0.21348394 0.1558067 0.13025708
000140 bf 44 e0 3d cf 4a 81 bd 62 84 db 3c eb 16 08 be
       0.10950612 -0.06313097 0.026796523 -0.13289993
000150 e3 92 bb 3d 99 ed 56 be 15 e2 60 3e fa 7b 9c 3d
       0.09158876 -0.20989074 0.21961243 0.07640834
000160 f0 ac 86 bc 6e 12 05 3e 57 dc a2 3e 57 0d 0f 3d
       -0.016439885 0.12995312 0.3180873 0.03492483
000170 a6 56 7d be 6a df 8a 3e cd f3 8c 3e 8c 5f 87 3d
       -0.24740085 0.27123576 0.27529755 0.06610021
000180 c8 7a 26 be 31 49 d9 be 61 8f 9c 3e fb a8 79 bd
       -0.16257775 -0.42438653 0.3057814 -0.060952168
000190 6a a8 58 be 02 35 75 3e a8 7e a0 3c 22 a0 95 be
       -0.21157995 0.23946002 0.019591644 -0.29223734
0001a0 95 0e 31 bc 4c 40 15 bd bc ef d1 bd a4 9a b0 3d
       -0.010806699 -0.03643827 -0.10250804 0.08623245
0001b0 12 40 c8 bd 4e da 53 bd 26 25 bc 3d f3 86 1c 3c
       -0.097778454 -0.051721863 0.09186773 0.009553659
0001c0 a5 90 58 3e 8e fc a2 bc 31 ed 07 3e 1c 09 38 3c
       0.21148928 -0.019895818 0.13274075 0.011232641
0001d0 aa a2 51 bd 3d e7 bb bd b0 fe 82 3d 18 32 67 bd
       -0.05118052 -0.091749646 0.06396234 -0.056444257
0001e0 23 2e 0a 3e 2e 88 54 3c cb 63 b3 bd 0d f1 82 3d
       0.13494162 0.012971921 -0.087592684 0.06393633
0001f0 a7 37 4f be fd 22 02 be fe 50 37 3e 2d d0 38 be
       -0.20236073 -0.1270866 0.1790199 -0.18048163
000200 ba f3 c2 bd 77 f1 72 be f1 c0 15 be 99 3e 26 be
       -0.095191434 -0.23724924 -0.14624383 -0.16234817
000210 23 04 80 bd db 12 f7 be 0b 73 8f bc 67 92 86 be
       -0.06250789 -0.48256573 -0.017510911 -0.2628357
000220 00 92 74 be 45 48 2e 3e eb ac f6 bd cf c0 4f bd
       -0.2388382 0.17019756 -0.120447 -0.050720986
000230 68 4c 97 bd 7d 54 e5 bd f8 44 18 3e b9 d4 6b 3e
       -0.0738762 -0.111977555 0.1487006 0.23030366
000240 f3 81 40 3e 30 c0 f7 bd 36 d8 38 be f7 d4 99 be
       0.18799572 -0.12097204 -0.18051228 -0.30045292
000250 46 38 cb bd d7 2c ca bd 61 33 a1 3d 07 13 ed bd
       -0.09922843 -0.09871834 0.07871128 -0.11575895
000260 ad 30 12 bd fa 53 60 3d 01 da 1f be 01 96 58 3e
       -0.035690952 0.054767586 -0.15610506 0.21150972
000270 12 4e c2 bd a0 68 a3 3d 04 63 21 3e 4e 2c 89 bd
       -0.09487547 0.0797894 0.15760428 -0.066979036
000280 c9 f2 69 3d e5 f1 73 3d 25 c1 31 3c 00 ae d3 3d
       0.057116304 0.05955686 0.010849272 0.10335922
000290 2d c9 52 be 3d 3d c4 bd 07 19 76 3e 5e e2 8e 3e
       -0.20584555 -0.09581993 0.24032985 0.2790708
0002a0 35 ef 8f bd 35 16 de 3d ff 39 48 be c5 59 77 be
       -0.07028047 0.108440794 -0.19553374 -0.24155338
0002b0 f5 4b 34 bd a3 cf 9c bd 7b d8 b1 bd 54 27 8b 3e
       -0.04401775 -0.07656791 -0.086838685 0.27178442
0002c0 70 c1 fc bd 58 66 65 be a0 46 d2 be d3 44 ea 3d
       -0.12341583 -0.22402322 -0.41069508 0.114389084
0002d0 6c ad c8 bd 4b 6b a1 3d d4 ee 61 be 22 d1 35 3e
       -0.097987026 0.07881793 -0.22063762 0.17755559
0002e0 33 dd 37 bd c8 47 af bc 31 2e fa 3d 57 96 67 3d
       -0.044888686 -0.021396533 0.122158416 0.05653986
0002f0 da c5 03 3d 38 cd 5e be af 0a ab bb ff 1b 0c 3e
       0.032171108 -0.21757972 -0.0052197794 0.13682555
000300 f4 3a 0b be bc 66 e7 bd 11 8b a1 bd be 54 55 bc
       -0.13596708 -0.11298892 -0.07887853 -0.013020692
000310 d4 09 91 be 53 97 16 3e 3a 25 53 bc 12 be e7 bd
       -0.2832781 0.14706163 -0.0128872935 -0.1131555
000320 af ea ee bb f5 65 62 3e 9e d9 9e 3e f7 e0 01 3e
       -0.00729116 0.22109206 0.31025404 0.12683474
000330 00 0a 5e 3c d6 c1 34 3e 41 b3 94 be a2 b4 28 bd
       0.013552189 0.17652068 -0.2904301 -0.04118789
000340 05 1c ee bd 55 59 96 3e fc 1c ba 3e b2 c4 b8 bd
       -0.11626438 0.2936503 0.36350238 -0.09021892
000350 d1 20 17 3e ac 6a ee bd 81 95 aa be b0 85 ea bd
       0.14758612 -0.1164144 -0.33317187 -0.1145128
000360 0d e3 ef 3d d4 95 42 bd 37 21 ff bd d0 3f e3 3d
       0.117132284 -0.04750617 -0.12457507 0.11096156
000370 7e 28 39 3e c1 1b 42 3b aa f8 11 bd 70 4a 34 3e
       0.18081853 0.0029618593 -0.035637535 0.1760652
000380 2e 7a 5f be 46 1e 9d 3d 3f 34 09 3d ff 2a 7c bd
       -0.21823952 0.0767179 0.03349709 -0.06156444
000390 36 ae af bd de fe 0b be a1 95 25 bd 85 90 f7 3d
       -0.0857815 -0.13671443 -0.0404259 0.12088112
0003a0 77 05 59 be 79 0b f9 3d 57 70 6c 3d fd 2a a6 3e
       -0.21193491 0.12160391 0.057724323 0.32454672
0003b0 5e 7e 6c 3d ab 99 12 3e b8 32 13 3e f2 ac e5 3e
       0.0577377 0.14316432 0.14374816 0.4485851
0003c0 06 ad d9 bb b9 2a 0b bd bb bb 73 3c ca d0 44 3e
       -0.0066429405 -0.03397629 0.014876301 0.19220272
0003d0 4f 9b 56 bd c5 da bf 3b bb c5 81 3e dd 76 89 bd
       -0.052394208 0.005854937 0.2534617 -0.067121245
0003e0 41 51 a2 bc e4 5b 72 bd 75 1f 60 3c 4e 8e ff bd
       -0.019814136 -0.059169665 0.013679375 -0.12478314
0003f0 95 ad 8c 3e e2 04 ae bc f5 e5 07 be 27 45 00 3d
       0.27476183 -0.021242563 -0.13271315 0.03131595

bias f4 [64]
000000 8c 08 49 bf 83 ae 37 be 7e 74 bb be b2 e1 2c 3f
       -0.78528666 -0.17937665 -0.36612314 0.67531884
000010 da be c3 3e 45 35 aa be 04 71 b9 be 79 13 fb 3e
       0.38231546 -0.33243766 -0.36219037 0.49038294
000020 4a 82 60 3e a8 aa c6 be 5a e4 71 3e 95 68 2f bf
       0.21924701 -0.38802075 0.23622265 -0.68518955
000030 ef 94 99 ba 7b 9d 5e bd 31 a2 d8 be ed dc 59 3e
       -0.0011717359 -0.054349404 -0.42311242 0.21275683
000040 49 95 b6 be 8c c9 3d be 4f 54 b6 3e b9 3e 41 3f
       -0.3566077 -0.18533915 0.35611197 0.7548633
000050 b1 dc 2c be 23 8b 53 bf af 64 6f 3e f2 00 c7 bd
       -0.16881062 -0.8263418 0.23378251 -0.09716977
000060 0c 07 a0 3c 53 d0 9a bc b8 bc 35 bb fc 3f 9d 3e
       0.01953461 -0.018898165 -0.0027730893 0.3071288
000070 2f 05 4e bf 16 df 5a 3c db 1b f1 be 01 61 05 be
       -0.8047666 0.013358852 -0.47091565 -0.13025285
000080 23 73 29 bf f9 79 16 bf 64 af 25 bf 60 cb 04 3f
       -0.6619131 -0.58779866 -0.6472075 0.51872826
000090 4a 21 c9 3e e7 d9 57 bf 3f da aa 3c 8a a5 0c bf
       0.3928321 -0.8431687 0.020856021 -0.5494009
0000a0 64 f6 b3 3e 95 e6 96 bd f8 7d fc 3d 17 f9 45 bf
       0.3514892 -0.07368199 0.12328714 -0.77333206
0000b0 56 b6 72 be 6d c0 0a 3f b2 33 44 3e 8a d4 c8 3e
       -0.23702368 0.5419987 0.19160345 0.39224654
0000c0 ff 92 71 be f2 d7 1e bf bd c2 98 3e 59 cc e3 bd
       -0.23591231 -0.62048256 0.29836074 -0.111229606
0000d0 e0 3a fa be be 59 4f bf 7e ed 1e be 51 d4 b8 bb
       -0.48873043 -0.8099631 -0.15520284 -0.0056405445
0000e0 db 6b 25 bf 6f 3f eb bd 1c 92 1b bf 3e ac 16 bf
       -0.646177 -0.114867084 -0.6076982 -0.5885657
0000f0 eb 0e 62 be a9 d7 88 be 94 74 ea be b8 f3 00 3e
       -0.22076003 -0.26727036 -0.45792067 0.12592971

weight f4 [128, 64]
000000 eb 39 06 bd 8f 00 db 3c 31 16 0c 3d 88 2a 64 bc
       -0.03277008 0.026733665 0.03420085 -0.013926156
000010 63 29 98 3d 08 5b f0 3d 8e 44 ce bd 79 87 84 3e
       0.07429769 0.11736113 -0.100716695 0.25884607
000020 10 1c 7c be 21 ea 51 bd 19 b4 96 bb f8 db ca 3b
       -0.2462008 -0.051248673 -0.004599106 0.006190773
000030 4d c2 1d be 7e b4 cf be 3c ab 3d 3d d7 ba 1b 3c
       -0.15406151 -0.40567392 0.04630588 0.009504995
000040 28 b0 2f be d6 8c 05 3e 2f 33 b0 3d 22 c1 8d bc
       -0.17157042 0.13042006 0.086035125 -0.017304007
000050 1c ad 64 be 5a f7 06 3e ee 4c 69 3d 70 7a 35 bd
       -0.22331661 0.13180295 0.05695813 -0.04430622
000060 31 6a 05 3c 2e 9b 0c 3e 2f c2 d6 3d 8f 89 13 3e
       0.008142994 0.13731071 0.10486256 0.14407943
000070 89 dd 9c bd 24 6a cb 3d bd 05 49 3e 3e 81 fe 3c
       -0.07659442 0.09932354 0.19631095 0.031067487
000080 53 c0 51 3c dd 90 77 bd 2a d4 30 bd 35 f8 b2 3c
       0.012802201 -0.060440887 -0.043171085 0.02184687
000090 bd 0d b4 3e 13 05 3b 3e 18 7b 10 3e 7b bf 24 3d
       0.3516673 0.18263654 0.14109457 0.040221673
0000a0 93 38 28 bd 88 42 95 bd 91 2b 53 be 43 e0 9a be
       -0.04106958 -0.072880805 -0.20622088 -0.30249223
0000b0 29 fc a3 3d 1a 9c 74 bd 7d a2 2e 3d 34 02 91 3e
       0.0800708 -0.059719183 0.04263543 0.28321993
0000c0 54 bf 37 bf c0 5f c1 be e7 5a b5 3d 4c 06 c5 3d
       -0.7177632 -0.37768364 0.08855229 0.09620342
0000d0 6d d1 03 3e 1e a8 53 3e 30 4e 13 bd fe 94 ab bd
       0.12872858 0.206696 -0.035963237 -0.083780274
0000e0 b9 de 94 3e 51 a3 8e bc 67 3f 5f 3e 81 45 5f be
       0.29076174 -0.01741186 0.2180153 -0.21803857
0000f0 b5 c4 19 3e f5 1b 13 bd 71 8c 81 3d 33 2d a8 be
       0.15016444 -0.035915334 0.06325615 -0.32846984
000100 75 eb 88 be aa ac 22 3e a5 45 50 bd 25 6f e6 3e
       -0.2674214 0.15886179 -0.05084767 0.45006672
000110 73 28 31 be 3c b0 e6 bc f6 7b 10 bc 87 ff 73 bd
       -0.17300586 -0.028160207 -0.008818617 -0.05956986
000120 22 b7 2a bd ab a2 80 3c 95 86 45 3e 60 24 94 be
       -0.041678555 0.015702566 0.1928962 -0.28934002
000130 3f ca 67 3d c8 58 06 bf e1 7d 9d 3b 4a 30 85 bd
       0.05658936 -0.5247922 0.0048062657 -0.06503351
000140 64 f8 84 be 4c c3 b8 3d 79 f2 c9 be 2c 6f 06 3e
       -0.25970757 0.09021625 -0.39442804 0.13128346
000150 e9 d2 02 bd 1a e0 7b 3e 31 80 28 3e 76 19 cc 3d
       -0.03193942 0.24597207 0.16455151 0.09965794
000160 8c c3 95 be bc ef a0 3d 34 d8 00 3e e5 86 05 3c
       -0.29250753 0.07858226 0.12582475 0.008149837
000170 1b d4 f0 bd e7 f3 92 bc 76 d8 75 bb 3c 01 62 bd
       -0.11759206 -0.017938567 -0.0037513054 -0.05517696
000180 3b c2 e9 bd e8 86 f7 bc fc 96 38 3e b9 bd 21 bd
       -0.11414 -0.030215696 0.18026346 -0.039487574
000190 31 82 20 3d c1 a1 d5 bb 35 1b 8c 3d 4d 5f 11 be
       0.03918666 -0.0065195267 0.06841127 -0.1419651
0001a0 b8 c6 0c be 52 b4 11 bd d6 8a f0 3c f4 9c d6 be
       -0.1374768 -0.035572357 0.029363077 -0.4191662
0001b0 e9 5f d3 ba 64 30 91 3e 93 af 87 bd 37 e3 49 bd
       -0.0016126606 0.28357232 -0.06625285 -0.049288955
0001c0 80 6c 8e be d2 9a c3 3d 73 e0 03 3e 2e 6f de 3d
       -0.27817154 0.09551014 0.1287859 0.108610496
0001d0 20 9f 7d 3d d4 92 a1 3d 39 d3 e6 3d 4f 6b 0b 3d
       0.06191933 0.07889333 0.11270756 0.034037884
0001e0 55 de 96 bb 7a f1 b2 be 6c c6 a7 3e 28 43 c2 bd
       -0.0046041408 -0.34949857 0.3276857 -0.09485465
0001f0 e9 a5 c2 3d 9c 0d 33 3c 53 b8 66 3c 38 3d 82 3c
       0.09504301 0.010928538 0.014082032 0.015898332
000200 10 80 9e 3e f7 15 1c be 37 93 43 bd 32 84 6c 3e
       0.3095708 -0.15242754 -0.047747817 0.23097304
000210 cc f0 69 3e d6 77 62 bc 88 29 fc bd 10 81 30 3c
       0.22845763 -0.013822516 -0.12312609 0.010772958
000220 59 7c bb 3e 14 fa 3e 3d 51 47 f8 3d e3 f8 87 be
       0.36618307 0.04662521 0.121229775 -0.26557073
000230 4f 0c 21 3d 7d 55 d6 bb 54 ad 56 be f7 e3 b2 bb
       0.03931838 -0.0065409527 -0.20964557 -0.0054593044
000240 85 c6 cc bd 7f 33 71 be a3 e6 da bd 92 6a 39 bd
       -0.09998802 -0.235548 -0.10688522 -0.04526765
000250 aa af 8c 3e ea 49 dd be 19 ae b3 3e 9c f5 d9 bd
       0.2747777 -0.43220454 0.35093763 -0.106425494
000260 49 f6 ea bd 50 6c 83 be b0 5f 58 bd 88 a7 89 bd
       -0.114727564 -0.25668573 -0.05282563 -0.06721407
000270 af 40 89 3d 6a 95 b3 3a 4d f1 a8 be 22 a9 cc bd
       0.067017905 0.0013701145 -0.32996598 -0.09993197
000280 92 fa 24 3e 44 17 1e bd d4 eb 8c 3e b0 79 c6 3d
       0.1611121 -0.038596407 0.27523673 0.09691179
000290 dd d9 23 be 7d 41 73 be 43 53 6e 3d 90 6a 22 bd
       -0.16001077 -0.2375545 0.058184873 -0.039652407
0002a0 18 8e 2b 3e 9d 15 7e bc 04 99 24 bd e6 65 76 3e
       0.16753423 -0.015508083 -0.04018499 0.24062309
0002b0 4a dc eb bd 79 ae ef 3c 87 9b c3 bd ef 87 ee 3b
       -0.11516626 0.029258 -0.09551149 0.007279388
0002c0 5d f1 86 bc 9f d1 ac 3d cb 85 18 3d e1 2d e9 3d
       -0.016472513 0.084384196 0.03723697 0.11385704
0002d0 4f 3f 34 3d 54 42 58 bc ae 17 be bd 9e ba f0 bc
       0.04400569 -0.013199408 -0.0928186 -0.029385861
0002e0 21 b9 fe 3d 85 66 c2 bd e3 59 d3 3c 6c 09 ee bd
       0.12437654 -0.0949221 0.025799697 -0.11622891
0002f0 07 f8 34 3d 80 8d 0c bd dd 2e fc 3d 91 14 0f 3e
       0.04418185 -0.034314632 0.12313626 0.13972689
000300 66 cd d9 bd de 5a 13 be 9e 01 27 be db 09 1d 3e
       -0.1063488 -0.14390132 -0.1630921 0.15335791
000310 da da d7 bd 7f 74 f4 bd 6c 70 9c be 2d 09 56 bd
       -0.105397895 -0.11936282 -0.3055452 -0.052254844
000320 c5 32 9a 3c d2 bc 32 be 09 18 1e 3e 50 e5 84 bd
       0.018823037 -0.17454842 0.15438856 -0.064890504
000330 20 fa 9b be 30 1c 88 bf 51 82 2e be a9 0a d3 bd
       -0.30464268 -1.0633602 -0.170419 -0.10304768
000340 c5 d1 2c be 3d b1 28 3e 16 52 2c bd 9d 81 45 3d
       -0.16876896 0.16473861 -0.04207047 0.048219312
000350 fc 26 4f 3c 1e 72 ca be e9 8f 15 3e 08 26 82 3d
       0.012643572 -0.3954019 0.14605679 0.0635491
000360 ac d9 10 3e 3b 48 93 bd 28 9c 4c be c6 b0 03 be
       0.14145535 -0.07191511 -0.19981444 -0.12860402
000370 40 2f b1 3e c3 62 6b b9 81 ab ae be fa 10 2f 3d
       0.3460636 -0.00022448138 -0.34115222 0.0427408
000380 c4 6a 3f 3e b4 31 83 be df 8a 4e 3e 3d 3c b0 bd
       0.18693072 -0.25623858 0.20170163 -0.086052395
000390 a1 b2 a7 be af 78 bc bd e9 23 4a be 4c 30 8d be
       -0.3275347 -0.09202706 -0.19740261 -0.2757591
0003a0 8a 84 e9 3d fd 1b 97 3d 08 5b 2f 3e 02 16 9e 3e
       0.11402233 0.07378385 0.1712457 0.30876166
0003b0 ab 57 a7 be 39 82 10 bc 67 f1 99 be 5a 5b 9d 3c
       -0.32684073 -0.00882011 -0.30066988 0.019208599
0003c0 3f aa fe be 9e d7 3c 3e b4 7c 11 be 0d f6 72 bd
       -0.49739262 0.18441626 -0.14207727 -0.059316684
0003d0 7b 17 92 bd 08 10 07 be 10 d5 08 3e c3 a4 46 3e
       -0.07133385 -0.13189709 0.13362527 0.19398789
0003e0 20 bd 79 3c cb 25 60 be bd 0f 93 bd 60 e1 e4 3d
       0.015242845 -0.21889417 -0.07180736 0.11175799
0003f0 17 0a f4 bd 44 3e 5f be ec 4f 3f be 06 08 5f 3e
       -0.11915987 -0.21801096 -0.18682832 0.21780404

bias f4 [128]
000000 8d 3b 72 bd 64 fe 84 3e 56 8d 37 be 2d 3e 7f be
       -0.059138823 0.25975335 -0.17925009 -0.24926062
000010 9e f0 e6 3c 3f cc 01 3e 26 5a 80 bd 52 f5 ed 3c
       0.028190907 0.1267557 -0.062671944 0.029047642
000020 4c f5 6c bd f9 0c 34 be b3 ed b2 be 8f b7 05 3d
       -0.05785112 -0.17583074 -0.34946975 0.03264576
000030 5c 40 88 be 2d 7c 44 3e 54 35 98 be 4d d8 79 be
       -0.26611602 0.19187994 -0.29728186 -0.24398918
000040 a6 3e 92 3e 43 3b d4 3d 42 33 c6 3d 07 aa 97 3e
       0.28563422 0.10362866 0.096777454 0.29621908
000050 51 f6 9d 3d 47 10 3e bd 58 35 87 be f4 c3 ee bc
       0.07712997 -0.046402242 -0.26407886 -0.029146172
000060 3a b4 42 3c a2 9a d4 be ae 10 d2 bd 66 7c bc 3a
       0.01188379 -0.41524225 -0.10257088 0.0014380335
000070 f4 2f 77 3e 04 12 11 bd af 91 10 bf 5b 66 ff 3e
       0.24139386 -0.03541757 -0.56472296 0.4988278
000080 61 36 97 3e c0 f2 dd 3c f1 5a 55 bd ed 93 26 3d
       0.29533675 0.027093291 -0.05208868 0.040668417
000090 9e 7b ba 3d da c8 ec bd bc 3e 19 3e e8 a5 55 3d
       0.09105609 -0.11561747 0.14965338 0.052160174
0000a0 e6 65 50 39 47 ce f3 3b 28 45 1f bf 71 59 da be
       0.00019874386 0.0074403617 -0.622149 -0.42646363
0000b0 2d 03 c3 be 3a bc 08 bd 7d 25 57 bd 06 a2 ef bd
       -0.3808836 -0.03338263 -0.052525986 -0.117008254
0000c0 2b 58 3b bc 63 be 43 3d 32 81 17 ba 1e b9 16 3c
       -0.011434595 0.04778899 -0.00057794445 0.009199409
0000d0 a2 f6 d5 bd 1c 62 8f 3d 2e 14 8b be fb 6a eb bd
       -0.10447432 0.07001135 -0.27163833 -0.11495014
0000e0 44 db 04 3d 84 7c 91 3e 02 b1 3a be 6e 0f 92 bc
       0.03243567 0.2841531 -0.18231586 -0.017829623
0000f0 e1 0d fe be 9a 84 a6 3e af 45 c8 be 24 8f 70 bd
       -0.49619964 0.32523042 -0.39115664 -0.05873026
000100 3f 29 61 3e 2d b2 4a be 38 86 b6 bd ce 14 6f 3e
       0.2198839 -0.19794531 -0.08912319 0.2334778
000110 90 aa 86 be ed 8c 25 3e 9e 65 4f 3e 96 5e 81 3e
       -0.26302004 0.1616704 0.20253608 0.25267476
000120 fb 28 99 bd bc 76 40 3e 46 5f 5b 3d 5d c8 3d be
       -0.074785195 0.18795294 0.053557657 -0.18533464
000130 30 0b a1 be d7 d7 47 3e e1 94 98 be f4 09 2b 3e
       -0.31453848 0.1951593 -0.29801086 0.16703016
000140 3e 37 90 3d b2 02 22 bc 59 a0 3e 3d bc f8 1c 3e
       0.070417866 -0.009888338 0.04653964 0.1532926
000150 57 7a df bd 3e f1 9d 3e 65 42 e1 bd 2e 47 b5 3e
       -0.10912006 0.30848116 -0.10998992 0.35405868
000160 dc 5f 5b be bf af 7b bc fb 24 12 bf 52 d2 be bc
       -0.21423286 -0.015361725 -0.5708768 -0.023293648
000170 23 d3 db bd b8 9b 22 bf b1 10 82 bd b0 b3 30 3e
       -0.107336305 -0.6351886 -0.0635084 0.17256045
000180 2a d7 e6 3d 92 0c d8 bb 77 0c b1 3c 34 7b a7 3d
       0.11271508 -0.0065932954 0.021612389 0.08177796
000190 b3 c6 9f 3e b4 8f 3c 3e 68 a7 8e bd f1 e2 28 bd
       0.31206283 0.18414193 -0.06965524 -0.041232053
0001a0 ec c6 1d 3e 80 a0 89 3c f9 10 5c be 11 c9 4f bb
       0.15407914 0.016800165 -0.2149085 -0.0031705538
0001b0 41 76 85 3e 14 d1 a3 be 5a dd c0 3e d1 03 33 be
       0.26066783 -0.3199545 0.37668878 -0.17481925
0001c0 81 60 11 be 3a d1 be bc 48 22 e8 3b 3a b3 fc be
       -0.1419697 -0.023293126 0.007084165 -0.4935549
0001d0 bf aa 1e bf a9 f5 04 3e 80 a6 08 3e 69 d3 af bd
       -0.6197929 0.12984337 0.13344765 -0.08585245
0001e0 43 ca 6f be 81 dc 83 3e 75 29 e4 3c b1 ab 29 be
       -0.23417 0.2575417 0.0278518 -0.16569401
0001f0 17 b4 9f bd 97 e8 78 be ba 44 a7 bd b4 83 87 3e
       -0.07798021 -0.24307476 -0.081674054 0.2646767

weight f4 [64, 128]
000000 09 13 87 be dc c3 f9 bb 65 3e 9e bc 10 10 21 bc
       -0.2638171 -0.007622225 -0.019316861 -0.00983049
000010 d4 ae 46 be 1e 55 85 bd f5 57 d0 bc 22 90 8a 3d
       -0.19402629 -0.065103754 -0.025432566 0.067657724
000020 a9 92 0f bd 04 da 56 bd 96 54 a2 3c 04 99 19 3e
       -0.035051975 -0.05245401 0.019815724 0.14999777
000030 18 7e 7a bf 82 29 37 3e c5 71 d3 3d 2c 8a af bd
       -0.97848654 0.17886928 0.10324434 -0.08571276
000040 b0 8d 44 be 16 73 c5 3e 0a 57 05 3e c8 38 f0 bc
       -0.19194674 0.38564366 0.13021484 -0.02932395
000050 c4 fc 73 3c 8c 6f 01 be df 5a 0c 3e 9d f3 bb 3d
       0.014891807 -0.12640208 0.1370654 0.09177325
000060 c6 91 9c 3c ba b8 ae bd 63 ca de bc 54 65 cd bd
       0.019112479 -0.085313275 -0.027196115 -0.100290924
000070 56 00 39 3e 8c e6 b7 3d 3e cf 3d be 11 94 04 bc
       0.18066534 0.0897952 -0.18536088 -0.008091942
000080 f9 0f 3d 3e 78 e2 9e 3c f5 aa 38 be 31 ea c8 3d
       0.18463124 0.019395098 -0.18033965 0.098102935
000090 e0 25 00 be 75 9b 72 3e d3 10 0c 3d c9 47 11 3e
       -0.12514448 0.23692115 0.034195732 0.1418754
0000a0 3a 19 1e bd 92 d5 bf bd 67 84 7d be 99 40 38 3d
       -0.038598277 -0.09366907 -0.24757539 0.04498348
0000b0 d1 48 80 bd c1 a2 2e be 8e 74 b0 bd 21 31 41 be
       -0.062638886 -0.17054273 -0.08615981 -0.18866397
0000c0 32 0a ed bd 09 db 00 bf 43 dc 55 be 1c 57 25 bd
       -0.1157421 -0.5033422 -0.20884804 -0.040366277
0000d0 e9 ca c4 3d 9a 6a fb 3d eb 1e cb 3d e1 2c 04 be
       0.096090145 0.12276192 0.099180065 -0.12907745
0000e0 8a 2c 86 3a ce 2e 67 3d 2c 5e a8 be 5e d9 a9 3d
       0.0010236662 0.05644112 -0.32884347 0.082934126
0000f0 0c da 8b 3e bc 36 db be 2c a8 2b bf ca fd f3 3c
       0.27314794 -0.42815197 -0.67053485 0.029784102
000100 55 a8 41 3e 19 52 83 3e c8 80 b2 be b9 a2 47 be
       0.1891187 0.25648573 -0.34863877 -0.19495668
000110 87 af 39 be 24 eb ae 3d 49 f0 e7 3d be a5 f6 3d
       -0.18133365 0.08540943 0.11325128 0.120433316
000120 68 b3 be bd b6 27 d8 3c 00 47 0d be 87 e6 44 3e
       -0.09311563 0.026386123 -0.13796616 0.19228564
000130 57 31 0b 3e a5 12 4d 3d 95 26 04 be 97 0a 60 3d
       0.1359304 0.05006661 -0.12905343 0.0546976
000140 c8 a3 51 3e a8 d8 6d be 0a 40 43 3d cb 96 b3 bc
       0.20472634 -0.23227179 0.047668494 -0.02192249
000150 37 08 c6 3d 59 94 54 3d 2b 10 8d 3d 8d 12 0b bd
       0.096695356 0.051899288 0.068878494 -0.03395324
000160 58 4f 08 bd 99 e8 37 3b 56 9d 26 be 42 72 3b be
       -0.033278793 0.0028062223 -0.16270956 -0.18305305
000170 27 80 e4 3c b6 74 2e be fc c6 95 bd 56 69 04 be
       0.027893139 -0.17036709 -0.07313344 -0.12930807
000180 34 bb ed bd ad a3 7b 3e be 3a 03 3e f7 bb 59 3e
       -0.11607972 0.24574156 0.12815377 0.21263109
000190 1a 1c b7 3d 8a 1f 2e bc 35 71 c0 3d 61 6f 66 3d
       0.08940907 -0.010627637 0.093965925 0.056258563
0001a0 eb 59 05 be 1b 5c 83 3e 15 92 9e bd d1 69 d8 3e
       -0.13022582 0.25656208 -0.07742707 0.42268232
0001b0 87 08 25 3e fc 55 21 bd 45 1d c7 bb 14 a2 11 bf
       0.16116534 -0.03938864 -0.0060764872 -0.56887937
0001c0 16 6b 10 be d1 58 a3 be 83 74 38 3d 8f d8 c8 be
       -0.1410335 -0.319037 0.04503299 -0.3922772
0001d0 e0 88 23 be f2 76 ab bd 00 d1 ae 3e 27 0c 4e be
       -0.15970182 -0.083722964 0.3414383 -0.20121823
0001e0 9d 1c 3f 3e e7 4b 5f 3e 82 cc 83 be 09 5f 08 3e
       0.18663259 0.21806298 -0.25741965 0.13317503
0001f0 48 d6 7a 3d e0 8a 82 be 14 ba 25 3e a4 0f 60 be
       0.06123951 -0.25496578 0.16184264 -0.21880966
000200 1f 19 64 3c 50 70 72 3c 39 7c ab bd 7c af 39 bd
       0.013922005 0.014797285 -0.08373303 -0.04533337
000210 3c e0 c4 3d 4c 33 18 bd 16 8c d7 bc f2 83 1a 3e
       0.09613082 -0.037158296 -0.026311915 0.15089396
000220 09 7f 9b 3d 6d 62 82 be 77 09 47 bc 01 8d 87 bd
       0.075925894 -0.25465718 -0.012148253 -0.06618691
000230 9b 22 a2 bf f4 9d 69 3c 04 9c b7 bd eb 3d 2e be
       -1.2666811 0.01425885 -0.089653045 -0.17015807
000240 09 6e 82 3d cc 56 37 3d 3e 2a 24 be 28 46 a0 3d
       0.06368644 0.04476051 -0.16031739 0.07825881
000250 7c 6d eb 3d 79 55 08 3d 75 29 03 be ea 82 bc bd
       0.11495492 0.033284638 -0.12808783 -0.092046574
000260 7c eb a7 3d c2 4f e4 bc 29 30 2e bc fb a9 b6 ba
       0.08199212 -0.027870063 -0.010631599 -0.0013936156
000270 ed b9 2b 3d be da ef 3d 76 f1 b0 3d 7a 9d 2e bb
       0.04192536 0.11711644 0.08639805 -0.0026644156
000280 f5 8c b6 3c 73 c4 83 3e a8 a2 4e 3b ad 04 e1 bd
       0.02228401 0.25735816 0.0031530056 -0.1098722
000290 72 73 ef bd 1f 64 59 3e 44 86 2a 3d 75 d4 4a 3d
       -0.11691941 0.212296 0.041631952 0.04951902
0002a0 26 b5 a2 bd e5 79 bc 3d 3d b4 3c be ab 28 5a 3e
       -0.079447076 0.09202937 -0.1842813 0.21304576
0002b0 03 e6 dc bd 29 e3 0d bb 3a 8c 07 be 00 bb 32 3e
       -0.10786059 -0.002165029 -0.13237086 0.17454147
0002c0 b8 58 80 3d 54 d3 10 3e ba d6 62 3b 74 30 78 3d
       0.06266922 0.14143115 0.003461285 0.060593084
0002d0 f6 1a 0c 3d 8f 83 4c 3c 18 7d f5 bc c4 8d 66 3e
       0.0342054 0.012482538 -0.029966876 0.22515017
0002e0 c9 e2 95 be 2c 25 ce 3d 83 70 6b 3d d2 af 69 be
       -0.29274586 0.10065684 0.057480346 -0.22820976
0002f0 c5 ca a4 3d 5b 5d 55 be 1d 3e 29 3d e2 45 ae 3d
       0.08046488 -0.20836394 0.041319 0.08509423
000300 12 fd 16 be ca 82 bc 3e 38 19 29 3e ed fa 61 3e
       -0.14744976 0.36818534 0.16513526 0.22068377
000310 d0 65 ad bd 52 2a a4 3d c5 2c 9e 3d 0d 9b 1a 3e
       -0.08466685 0.080158845 0.07723383 0.1509821
000320 7c fc 52 3c a8 23 b2 bd 34 e8 7e 3c 88 2a 39 3e
       0.01287758 -0.08698207 0.015558291 0.1808263
000330 fe d0 e8 3d a6 47 88 bd 1e 84 c3 bb 48 c2 6c 3e
       0.11367987 -0.06654291 -0.0059666773 0.23120987
000340 44 d1 73 3d 0b c4 3c 3e cf a4 55 3d dd bb 6a 3e
       0.059525743 0.1843416 0.052159127 0.22923227
000350 77 2e 53 be 05 a7 3c 3d e0 70 27 3e 58 8e a8 bc
       -0.20623194 0.04605772 0.16351652 -0.020575687
000360 cb 30 e8 bc 4b 0e b9 3d 5b fd 45 be de 3e be 3d
       -0.028343579 0.09035929 -0.19334929 0.09289335
000370 ed 2e 9d bd 53 d5 13 be 61 fa c2 bd 40 91 82 bd
       -0.07674966 -0.14436845 -0.09520412 -0.063753605
000380 54 b2 8f bd c9 23 21 3d 5a 68 37 be 1c 2c 30 3e
       -0.07016435 0.039340768 -0.179109 0.17204326
000390 02 c0 e6 3d f1 a5 90 bd 52 62 2f be f7 a5 85 bd
       0.11267091 -0.07062901 -0.1712735 -0.06525796
0003a0 0b b2 f2 3d a8 4c 2f 3e a9 5d 14 be 01 f7 ff 3c
       0.11850365 0.17119086 -0.14488854 0.03124571
0003b0 b5 35 4e 3e 6a 12 ab bc e4 c0 46 bc 09 8d df be
       0.20137675 -0.020882804 -0.01213095 -0.4366229
0003c0 ef b6 9e bd a6 65 34 3e 80 ed 9a bd e6 5f f3 be
       -0.077497356 0.17616901 -0.07564831 -0.47534102
0003d0 be bf 8a bd 06 6a ae 3e 07 0f 55 3d 23 0c 23 3d
       -0.06774853 0.34065264 0.052016284 0.039806496
0003e0 d3 dc 9f be bb 23 90 3d c1 b7 00 3e b1 bd 8c 3e
       -0.31223163 0.07038065 0.12570097 0.27488473
0003f0 9a 40 a6 be f0 28 b3 3d 4f c6 6b 3e fa 1c 6e 3d
       -0.32471162 0.087480426 0.23024867 0.058133103

bias f4 [64]
000000 08 d1 37 3e 5d 16 ca 3e 01 42 1f 3e 15 f2 2e 3e
       0.17950833 0.39470187 0.15552522 0.17084534
000010 31 f5 53 3d 45 45 de 3e c9 42 49 3d af 78 24 3e
       0.051747505 0.43412223 0.049135957 0.16061662
000020 3e d0 1c be 16 f1 ac 3e 0d 0e b1 3e 76 dd 76 3e
       -0.15313813 0.33777684 0.34581032 0.24107918
000030 49 1f 19 3e 22 c3 95 be d3 4b 3f be 37 c3 31 be
       0.1495334 -0.29250437 -0.18681268 -0.17359625
000040 ac 3b 84 3e ea a6 ba bc 64 a2 e5 3c 69 ae cc 3d
       0.25826776 -0.022784669 0.028031535 0.099942036
000050 82 4a d8 3e 5e cb e5 3e 50 c6 4e 3e b1 c5 8d 3e
       0.42244345 0.4488172 0.20192838 0.2768989
000060 d3 70 70 3e 07 07 81 3e 73 6f df bd 73 52 69 3e
       0.23480539 0.25200674 -0.10909929 0.22785358
000070 3b 32 22 be 95 4b 09 3e 1e c2 9f 3e 5c 34 76 3e
       -0.15839474 0.13407739 0.31202787 0.24043411
000080 14 ca de 3e b2 77 90 3c e0 ab a0 3e a6 2f 34 3e
       0.43513548 0.0176352 0.3138113 0.17596301
000090 96 d4 6e 3e a9 a1 24 3c 0b f0 ef 3d e2 47 05 be
       0.23323283 0.010048308 0.117157064 -0.13015702
0000a0 47 57 7b 3e a0 93 23 3e 7e 3d 00 3f 76 63 57 bc
       0.24545012 0.15974283 0.5009383 -0.013146272
0000b0 b2 32 1d 3e b5 93 de ba 11 ba ce bd 3a e4 e6 3e
       0.1535137 -0.0016981276 -0.10094083 0.45095998
0000c0 6e 8d 91 3d 44 5b 55 3e d7 8f b4 be 03 36 39 3e
       0.07107054 0.20835596 -0.3526599 0.1808701
0000d0 be d7 4b 3e 9f 61 86 3e c8 ce 43 3e a6 d1 95 3e
       0.19906518 0.26246354 0.1912185 0.29261512
0000e0 14 8f 82 bd 4c dc b9 bd 5e 78 9c 3e 5a 85 ca 3e
       -0.06374946 -0.090752214 0.30560583 0.39554864
0000f0 90 da c1 3e 21 b3 f1 3e 2b c2 5d 3e fe 9e 5c 3e
       0.37862062 0.47206977 0.216561 0.21545026

weight f4 [32, 64]
000000 72 c3 30 3d a8 af 6b be 97 76 ec 3d c1 cc a5 be
       0.04315514 -0.23016226 0.11546057 -0.32382777
000010 8e ff 99 3e 59 40 21 3e 9a 4e 62 bd 5d e0 86 be
       0.30077785 0.15747203 -0.05525074 -0.2634305
000020 24 bd 17 be 95 e5 46 be 3a d0 27 be 51 d3 06 3e
       -0.14818245 -0.19423516 -0.16388026 0.13166548
000030 8b 45 4b bc a3 d9 6d 3e f3 0d 99 3c ba a2 b2 3c
       -0.012406717 0.23227553 0.01868341 0.02180611
000040 f6 1a 24 be d7 89 11 3d 44 ef 86 3e b9 61 a7 be
       -0.1602591 0.035531845 0.2635442 -0.32691744
000050 42 dd 2e 3e 58 87 e3 3d 14 e7 90 bd e9 2b 3e 3e
       0.1707659 0.11109799 -0.07075325 0.18571438
000060 4e 34 83 be a5 04 aa be 3d a9 3d 3e f7 86 83 3e
       -0.25625843 -0.33206668 0.1852159 0.25688908
000070 0c ed 85 3d b2 5c d2 be e0 8d d3 3c 80 55 c9 be
       0.06539354 -0.41086346 0.025824487 -0.39323044
000080 87 fa 0d 3d ee a2 97 3e 16 63 dc 3b a5 ad 79 3d
       0.03466275 0.29616493 0.006725679 0.060956616
000090 9b 6c 82 be 04 bb 88 be a2 a1 a8 be 3f 44 2e bd
       -0.25473484 -0.26705182 -0.32935816 -0.042545553
0000a0 89 86 0d be 1c 5c ac 3c 53 ae 01 bd 41 4d 99 bc
       -0.13820852 0.021040015 -0.03166039 -0.018713595
0000b0 4d 44 76 bd f6 78 19 bf 07 47 a0 3d 4c 45 21 3e
       -0.06012373 -0.59950197 0.078260474 0.15749091
0000c0 ea 86 9f be 4a 12 0b bf 9b d4 c7 3c 58 86 67 be
       -0.3115762 -0.5432478 0.02439337 -0.22609842
0000d0 e7 d7 05 3e 89 6c 06 3e e2 9a 3a 3e d6 3b a6 3d
       0.13070641 0.1312734 0.18223146 0.081168815
0000e0 59 76 9d 3d d0 95 2b be d2 b2 2f be 28 cb 58 3e
       0.07688589 -0.16756368 -0.17158058 0.21171248
0000f0 f2 9d ce bd f8 4b 0d bf d4 a1 5d 3d 54 0e 8c be
       -0.100887194 -0.55194044 0.05410941 -0.27354681
000100 67 5b 76 be 3d 86 75 be 76 ea 87 3c 72 67 b9 bd
       -0.24058305 -0.23976989 0.016591292 -0.09052934
000110 b2 4d eb bc db 34 0c 3e 40 38 d0 3d 6a c4 79 be
       -0.028723571 0.13692038 0.10166979 -0.24391332
000120 30 99 c7 3d 50 94 56 3e 84 01 0c bd 04 fe 45 be
       0.09746015 0.20955014 -0.034181133 -0.1933518
000130 08 61 c7 be 20 f5 e9 3d 78 c1 01 bf 5e c4 db 3c
       -0.38941216 0.11423707 -0.50685835 0.026827034
000140 33 49 7d be 73 54 0c 3e a4 4c 10 3e 17 85 81 3e
       -0.24734955 0.1370409 0.14091736 0.25296852
000150 b2 73 1d 3e 60 5b fa 3d 5f d6 8e 3d 12 1b c2 bd
       0.15376166 0.1222446 0.06974482 -0.094778195
000160 54 fa 0a 3d c6 23 bc 3c 57 60 7f 3e ac c1 35 3e
       0.033930138 0.022966277 0.24939094 0.17749661
000170 e0 5c 31 3d a7 7a 70 bd fa fd 5c 3c e6 5d 17 be
       0.043301463 -0.05871072 0.013488287 -0.14781913
000180 a0 f2 bd bd 1a ba a9 3e 3b 57 08 bc a0 fe 78 bd
       -0.09274793 0.33149797 -0.008321579 -0.060789704
000190 6c ea 9f 3d 78 fb 88 3e 66 2a 3b 3d 53 8b a6 bd
       0.07808384 0.26754355 0.04569473 -0.08132043
0001a0 01 55 1f 3e bd ef 24 be 91 e5 be bd d3 be 83 3e
       0.1555977 -0.16107078 -0.0932113 0.25731525
0001b0 e8 29 0d be a6 72 40 be c8 a0 e4 3e 87 1d bc 3d
       -0.13785517 -0.18793735 0.44653916 0.091853194
0001c0 b5 82 0d 3e d9 52 5d bc 41 a5 01 3f 8d b7 29 be
       0.13819392 -0.013508522 0.5064278 -0.16573925
0001d0 f6 9d 3e 3d 61 db 40 3e c1 80 88 3c 84 88 db be
       0.046537362 0.18833686 0.016662957 -0.4287759
0001e0 49 fe ad bc 63 ce 4f 3e 0b 9b 08 3e 2b 10 4d 3e
       -0.021239417 0.20293574 0.13340394 0.20025699
0001f0 2d 77 1e bc 61 63 9b bd af 2b cc 3c 77 67 2b be
       -0.009671968 -0.075873144 0.024923174 -0.16738687
000200 39 08 39 3c a3 18 57 be fe ad 9f 3d 21 d5 18 3a
       0.011293464 -0.21005492 0.07796858 0.00058300985
000210 6f 78 af 3d fd 63 c1 bd aa 44 f0 bd c7 b7 06 be
       0.08567893 -0.094428994 -0.11731847 -0.13156043
000220 ae 7f 1e 3d dd f8 ed 3a 8a 18 d1 bd 2c d7 a1 3d
       0.038695984 0.0018155832 -0.102097586 0.07902369
000230 7d 93 8e bd 3e 00 84 bc 58 fe f5 bb 48 42 df bd
       -0.06961725 -0.016113397 -0.007507127 -0.10901314
000240 a5 d5 3d be a4 41 e9 3d d9 00 1a be 55 e8 ef 3c
       -0.1853853 0.11389473 -0.15039386 0.02928559
000250 ce c8 cd bd 0e d4 19 be dc 11 7c be 29 b3 84 3d
       -0.10048066 -0.15022299 -0.24616188 0.064794846
000260 14 11 f4 3c 79 bd 38 be de 12 a8 bd 7b 95 6f bd
       0.0297933 -0.18041028 -0.08206724 -0.058492165
000270 7b be b2 3d c2 55 1a be f1 9f dd bd 62 36 2f bd
       0.087277375 -0.15071777 -0.10821522 -0.042776473
000280 03 67 05 bd 30 87 5f be 4a 67 0f bd 71 ba f9 bd
       -0.032568943 -0.21828914 -0.035010614 -0.12193764
000290 24 0c 13 3d f4 a0 36 bc 3c 54 52 bd bf 0d d8 3c
       0.03590025 -0.011146773 -0.051349863 0.026373742
0002a0 cc b7 5a be 23 3c bb bc 7a 3e 12 be e1 4f 3a be
       -0.21359175 -0.022855824 -0.14281645 -0.18194534
0002b0 5f 1a 39 3d 77 86 f4 bd 98 e0 e9 bd 8d cc f3 bc
       0.045191165 -0.1193971 -0.11419791 -0.029760623
0002c0 39 11 c4 3d 40 a9 8b 3c 7b d6 72 be c8 ea a7 bd
       0.095735975 0.017048478 -0.2371463 -0.08199078
0002d0 ed df c4 bc 05 5f 6a 3d f4 73 db bd 83 4e de bc
       -0.024032557 0.057219524 -0.10715476 -0.027137047
0002e0 ee c2 34 3d 45 41 c3 bc cb f2 80 3d b6 85 7f be
       0.044131212 -0.023834834 0.06296309 -0.2495335
0002f0 10 33 bc 3d 31 76 b7 bd 6a e8 3e be aa 7e 9a bd
       0.09189427 -0.0895809 -0.18643346 -0.075436905
000300 54 2d 96 bd 71 3b db 3d 46 b4 26 3e d4 f4 da bd
       -0.073328644 0.10704697 0.16279706 -0.106912285
000310 ad a2 6a bd 36 ed 5e 3e 53 97 08 bd e5 fa 07 be
       -0.057284046 0.21770176 -0.03334744 -0.13279302
000320 4b 36 81 3d d3 76 39 3e 34 38 20 3e 86 7d 37 3e
       0.06309184 0.18111734 0.1564644 0.17918977
000330 f6 52 a9 bd d8 b9 cc bd 01 c8 ce bd 0e ff 49 3d
       -0.08267777 -0.099963844 -0.100967415 0.049315505
000340 50 54 b9 3d 71 2e 7e 3d 75 4c 5c bf a5 cd 5f bc
       0.090492845 0.06205601 -0.86054164 -0.013659869
000350 74 7a 4c 3e c7 e3 b0 bc b6 6c 07 3e 24 58 07 3d
       0.19968587 -0.021592988 0.13225064 0.03304304
000360 e4 6e 2e 3e aa 4f c8 3b c7 04 cb 3d 0c 03 8f bc
       0.17034489 0.0061130123 0.099130206 -0.017457508
000370 2f 75 2b bd bd ad 64 bd c0 aa 9a 3b 8d 55 ad bd
       -0.0418598 -0.055829752 0.004720062 -0.08463583
000380 76 15 90 3d 1a aa 09 be b8 25 37 3e 34 1f d9 3d
       0.07035343 -0.13443795 0.17885482 0.10601655
000390 18 af 65 bc a3 63 0b 3e 15 d7 ce 3d 43 c1 b4 bd
       -0.014018796 0.13612227 0.100996174 -0.08825924
0003a0 91 83 4a 3e 70 c2 2c 3d e6 37 51 3e 93 89 f3 bd
       0.19776751 0.042177618 0.2043148 -0.118914746
0003b0 81 22 df 3d ee 78 32 be da 51 1d 3d 51 dc d4 bd
       0.10895253 -0.17428944 0.038408138 -0.103935845
0003c0 aa 1f 30 3e c0 71 e9 bc ee 42 bc bd cd eb ae bd
       0.17199579 -0.028496623 -0.09192453 -0.08541069
0003d0 0d 14 4d 3d bb dc 8e bd 6c 51 1d 3e 8b 3b f2 3c
       0.05006795 -0.06975695 0.15363091 0.029569408
0003e0 dd ac e4 3c 37 2a 79 3e 0a a6 41 3e e4 6e a1 3c
       0.027914459 0.2433251 0.18910995 0.019706197
0003f0 9e 5f 47 3e 6b 83 93 3d 7e 73 29 be 1e 8d 08 3e
       0.19470069 0.072028 -0.16547963 0.13335082

bias f4 [32]
000000 ff a8 42 bd 2e 6b 28 3e 0a b7 9d bd 8b 37 67 3e
       -0.04752445 0.16447136 -0.077009276 0.22579782
000010 6e e1 11 3e f9 82 19 3e e4 73 fd 3e 58 16 2c bc
       0.14246151 0.14991368 0.4950248 -0.010503374
000020 ea 0a 02 be 93 a9 d1 3e 36 3e 25 3e 8a 6e 5d 3e
       -0.12699476 0.40949687 0.16137013 0.21624199
000030 1c 52 43 3e e5 c6 bf 3e 1a 83 cf 3e fb 4e 01 be
       0.19074291 0.37456432 0.4052971 -0.12627785
000040 a5 44 07 3e 67 66 c4 3e 0d ce 2b 3e 99 5e 4a bd
       0.1320978 0.38359377 0.16777821 -0.04940662
000050 34 26 5b 3e 1a 33 4b 3d 65 cb 01 3f 92 20 80 3e
       0.21401292 0.04960928 0.5070098 0.2502485
000060 8b 2d 87 3e f6 b3 09 3f 76 2a cb 3e 74 6b b7 bd
       0.26401934 0.53790224 0.39680833 -0.08956042
000070 e7 99 d4 bd 19 88 89 3e 70 70 ce bd fa a6 c9 3e
       -0.10380917 0.26861647 -0.100800395 0.39385206

weight f4 [16, 32]
000000 95 c1 50 3d a4 c5 55 be 3d 5b da 3d a9 27 13 3e
       0.050965864 -0.20876175 0.106619336 0.14370598
000010 da 2e 2a be 76 28 7f be ea a8 df 3d 8a c3 62 3c
       -0.16619435 -0.24917778 0.1092089 0.013840565
000020 c7 6b ff 3d 74 ea 0b be e9 b5 27 3e 15 11 0b be
       0.12471729 -0.13663656 0.16377987 -0.13580735
000030 43 e7 41 bd cb 61 0e be 58 cb 35 be 49 6d 05 bd
       -0.04733969 -0.13904493 -0.1775335 -0.032574926
000040 61 ff 8a 3c b7 bd d5 bd 11 cc 1f be 23 1f 30 3d
       0.016967477 -0.10436576 -0.15605189 0.042998444
000050 6e 57 3b ba 93 a2 19 3d e4 ed 82 3d a5 dc 6f be
       -0.0007146512 0.03750856 0.0639303 -0.23424013
000060 0e 3b 15 3d 67 fa c6 3d 2b dc 86 bd 7e 41 d9 3d
       0.036433272 0.09715729 -0.065849625 0.10608195
000070 fe f8 80 bd 50 f6 80 be 90 97 ce 3d c7 80 e9 bd
       -0.062974915 -0.25187922 0.10087502 -0.114015155
000080 7c 05 11 3e 3d 40 97 bc 28 75 9f bd d0 4f b8 bd
       0.14162248 -0.018463248 -0.07786018 -0.08999598
000090 26 3e b5 bd 20 ee 2c be 4c ac 48 3e 7c 21 a8 bd
       -0.088497445 -0.16887712 0.19596976 -0.08209512
0000a0 81 00 1e be 8b 66 4e 3e 30 cd 11 3e 1f fd 94 3d
       -0.1542988 0.20156305 0.14238429 0.072748415
0000b0 ed 80 91 3d b6 5d 1c 3e 13 9e 3e bb 3f b2 ca 3d
       0.07104669 0.15270123 -0.0029085919 0.09897279
0000c0 e9 9b 4e bd e2 b4 10 3e cc ff 0d 3d cc e6 0a 3f
       -0.050441656 0.14131501 0.034667775 0.5425842
0000d0 28 09 27 be 15 1a 2c 3d 4f 65 82 bd 91 a5 1d 3e
       -0.16312087 0.04201706 -0.06366979 0.1539519
0000e0 c7 d3 40 bc 4d 90 66 3e 7b 2b 98 3e dc ed 90 bc
       -0.011769242 0.22515984 0.29720673 -0.017691545
0000f0 3c 91 24 3e b9 2b bd 3d bb dc eb bd 22 0b 9e 3d
       0.16071028 0.09236855 -0.1151671 0.07716967
000100 31 aa 63 3e 5f 9b d4 3e 16 b0 b8 3d 6f 24 17 bc
       0.22232892 0.4152479 0.09017961 -0.009224995
000110 5c 0c 88 bc e1 24 0e 3e 3e dc 80 3d 66 fc a4 3d
       -0.016607456 0.13881256 0.06292008 0.08055954
000120 5c 97 10 3e 8c e7 11 3e ff 87 a6 3e 1f 64 1c 3a
       0.14120239 0.14248484 0.32525632 0.0005965847
000130 56 2a c3 bd 47 07 59 bc 1c c6 b7 3d 10 fc 54 ba
       -0.09529559 -0.013246364 0.08973333 -0.00081247184
000140 ee 25 e1 3d 40 45 e7 bc 74 72 44 bc 76 84 2b bd
       0.10993563 -0.028231263 -0.011990178 -0.04187437
000150 34 a4 9b bc 16 74 2e 3e 3b 34 aa 3e 59 c2 5c bd
       -0.018999197 0.17036471 0.33242974 -0.053896282
000160 5d 4c 8b bd 09 07 ac 3d 6a a1 8c be 62 e5 f9 bc
       -0.068016745 0.08399779 -0.274669 -0.030504886
000170 31 38 4f 3e cd c9 4d 3e 4e e3 44 bd 79 e7 8e bd
       0.20236279 0.20096512 -0.048068337 -0.06977744
000180 de cb d1 3d 21 93 17 bd 7f 9b 27 be 0c 0f e0 bc
       0.10243963 -0.037005547 -0.16367911 -0.027350925
000190 bf 6e b4 3d 3f f1 08 be 86 ca ed bb 5a 32 69 bd
       0.08810186 -0.13373278 -0.0072568087 -0.056932785
0001a0 41 13 1b 3e 99 76 26 be 2b 7e 21 be de 49 24 be
       0.15144064 -0.16256179 -0.15770786 -0.16043803
0001b0 25 87 31 be 23 2b 9a bd c8 7e 8a 3b 58 5d e0 bd
       -0.1733671 -0.07527759 0.0042265393 -0.10955304
0001c0 43 0c 08 3d d4 2c 6d be fd 1c da 3d 36 fb 37 bb
       0.03321482 -0.23161632 0.1065006 -0.0028073317
0001d0 d0 a6 17 be 97 db 85 3c 9a 9c bb bd de d3 ab 3d
       -0.14809728 0.01634006 -0.09160729 0.0839002
0001e0 58 db 0b be c1 08 b2 3d b1 ea f8 bd d4 e6 a8 bd
       -0.13657892 0.08693076 -0.12154139 -0.08247152
0001f0 b9 bb d3 bc 4c 53 ee bb ac 6c 24 be ad ff 1c be
       -0.02584635 -0.0072731134 -0.1605708 -0.15331908
000200 7d 6c 64 bd 1e 43 58 3e 99 19 3f bd a6 76 30 bd
       -0.055767525 0.21119353 -0.04665527 -0.043081902
000210 15 6e 9a 3d 03 4c 0f 3e 25 6a 99 bd 79 c2 cb 3b
       0.07540528 0.1399384 -0.074909486 0.0062182513
000220 18 5b f4 3d fd b1 c9 bd f7 ee 79 3c 7b 0a 51 3c
       0.11931437 -0.09848402 0.015254728 0.012758846
000230 fe 64 72 bc b0 25 a6 bd a3 40 c3 3c 28 11 dd bd
       -0.014794586 -0.08112657 0.023834532 -0.10794288
000240 f1 13 85 3e 7e 72 a7 3c 07 76 13 3e 47 db d2 3e
       0.25991777 0.020440336 0.14400493 0.4118292
000250 25 69 76 be da 7b ef bd 02 fa 0a bc cd 0e 83 bd
       -0.24063547 -0.11693545 -0.008482458 -0.063993074
000260 ac e3 b6 bd 05 d1 c5 3e 76 36 85 be 6c 19 31 be
       -0.08930144 0.38636032 -0.26018113 -0.17294854
000270 3b 23 8b 3e 0b 72 6a 3d 9c 08 b1 bd bc 6d d1 bd
       0.27175316 0.057237666 -0.0864422 -0.10226008
000280 34 9c 1b be 51 93 3c 3d 43 81 ef bd d2 6f e8 bd
       -0.15196306 0.04603893 -0.116945766 -0.11349453
000290 60 df 01 3c a4 ab b7 bd c2 d7 50 be ed ef 1c 3e
       0.007926792 -0.08968285 -0.20394805 0.153259
0002a0 e4 71 46 bd 63 23 f9 3d 0b 9e 86 bd 70 63 6f 3d
       -0.04844846 0.121649526 -0.06573113 0.05844444
0002b0 6e e3 20 3c d2 35 ef bd 56 ea 12 be a2 b0 86 3d
       0.009819848 -0.11680187 -0.14347205 0.06576659
0002c0 b8 75 3f be 63 6d 34 bd ee f2 35 be ab 7f 0c bb
       -0.1869725 -0.04404963 -0.17768452 -0.00214384
0002d0 a2 cf b1 bb 08 97 04 3e b8 a6 cd bc 3e fa 66 bd
       -0.005426363 0.12948239 -0.025103912 -0.056390993
0002e0 00 4f d0 bb 40 16 78 3d 67 a8 8f bd 42 c3 f3 3d
       -0.006357074 0.060568094 -0.07014542 0.11902477
0002f0 36 a3 bb bd 73 99 09 be b4 a8 31 be 32 df 55 bd
       -0.091619894 -0.13437442 -0.17349511 -0.05221481
000300 32 4e 8f be 56 83 d2 bd 71 92 d5 bd a8 85 42 3d
       -0.27989346 -0.102789566 -0.10428322 0.047490746
000310 2c f3 0d 3e 89 36 a1 be 1b a3 01 3d ec 9e 86 b9
       0.13862294 -0.3148692 0.03164969 -0.00025676878
000320 75 9b 7c 3d 56 80 38 3e f6 72 13 3d 22 b6 c7 be
       0.061671693 0.18017706 0.035998307 -0.39006144
000330 20 b0 10 3e 07 b1 49 3e 60 5e 8d be 2e 9d e4 3d
       0.14129686 0.19696437 -0.27611065 0.11162792
000340 fa 23 ea 3d 2d e0 5c 3e 6c f6 81 3d b6 26 0e be
       0.11432643 0.21569891 0.06345829 -0.13881955
000350 79 45 5b 3d 8d ae 43 be 51 9c e6 3d 00 c6 2f be
       0.05353305 -0.19109555 0.11260284 -0.17165375
000360 0c 4e 55 bc f8 d4 e0 3e 88 29 25 bd 4f cb 10 3e
       -0.013019096 0.43912482 -0.04032281 0.14140056
000370 29 ed 53 be b2 9f bf 3d 82 e6 97 bb e6 f1 56 3c
       -0.20695938 0.09356631 -0.004635633 0.0131191965
000380 87 b2 09 be bf 6a 05 be ae 6c 53 bc 0c 92 87 3d
       -0.13447009 -0.13029002 -0.012904329 0.06619653
000390 37 46 7c 3e 1c 4e 40 3e f4 92 01 3e d9 b2 49 be
       0.2463616 0.18779796 0.12653714 -0.19697131
0003a0 b8 d6 d1 bc 54 dc 08 3e 08 82 66 3e a2 bf 1d be
       -0.025615081 0.13365299 0.2251054 -0.15405133
0003b0 78 2d b7 bb bb 1b 7f be b7 ba 2d 3e 0e 79 5d 3d
       -0.005590137 -0.24912922 0.16965757 0.054070525
0003c0 ae d5 31 be 53 2d eb bd e0 69 9e 3c 7b ea 9e be
       -0.17366669 -0.11483254 0.019337595 -0.3103827
0003d0 4e 4d 8d 3e ab ec 06 be be a6 27 3e 4d 0e e1 bd
       0.2759804 -0.13176219 0.16372201 -0.10989056
0003e0 22 08 02 bd b1 15 ae bd 3f b9 16 3e e9 8f f0 bd
       -0.031746037 -0.08500231 0.14719103 -0.11746199
0003f0 44 93 33 bd 67 0f cd 3d 38 db 55 3e 29 45 54 3e
       -0.043841615 0.100127034 0.20884407 0.20729508

bias f4 [16]
000000 91 75 3e bd 88 3a b3 3e a8 fd ea 3d e3 a8 1b be
       -0.04649884 0.35005593 0.11474162 -0.15201144
000010 46 42 ba be 53 d0 50 be b2 36 e4 3e 4f ed 91 3e
       -0.36378688 -0.2039197 0.4457298 0.28501365
000020 b7 2c 95 3e 5d 36 52 3e ba a9 ad 3d 8b 9e a6 bd
       0.29135677 0.2052855 0.084796384 -0.081357084
000030 0f b4 78 3e 6a f0 bd 3c 30 c5 22 bc 7b e0 96 3c
       0.24287437 0.023185927 -0.0099347085 0.018417588

weight f4 [8, 16]
000000 d7 45 b4 bc ec 4d 17 3e df 3c 83 be 8b 54 10 be
       -0.022005958 0.14775819 -0.25632378 -0.1409475
000010 4f 37 99 be 9d f9 34 be c8 8c ed 3d f5 94 00 3e
       -0.2992501 -0.17673345 0.115991175 0.12556823
000020 9a 7a 4f be f4 d3 2b 3d 4b 0f 19 3e c8 a3 26 be
       -0.20261613 0.04195018 0.1494724 -0.16273415
000030 7e 4a 6f 3e 99 0f 15 3e 40 5d 34 bd 31 c1 24 be
       0.2336826 0.14556731 -0.044034243 -0.16089322
000040 02 f2 73 3e 10 26 81 be 4f 4e c7 3e a4 37 1d be
       0.23822787 -0.25224352 0.38926932 -0.15353256
000050 00 ea cd bd e1 33 11 3e cd 7e b2 3d 94 6c 93 3d
       -0.100543976 0.14179946 0.087155916 0.07198444
000060 49 61 a3 be 95 bd 77 3e 10 cd 85 3d c0 8d b3 3d
       -0.3191016 0.24193414 0.06533253 0.08767271
000070 83 96 59 3a a9 97 2a 3e 18 ad 6d 3e e3 b4 86 3e
       0.0008300321 0.16659416 0.23210561 0.2630988
000080 c3 b8 1f be 71 3d ae be 84 7d ae 3e 61 83 08 3e
       -0.15597825 -0.3403125 0.34080136 0.13331367
000090 82 44 c6 3d 49 34 5d be bf d5 4f 3d c6 b4 5f 3e
       0.096810356 -0.21601976 0.050740954 0.21846303
0000a0 3a fe 29 3e 8d 0e 7c 3e 34 86 04 be 4a 1f 4f be
       0.16600886 0.24614926 -0.1294182 -0.2022678
0000b0 20 8c c0 3b 0d d9 1b 3e 44 1f de bd 1d 4b 8f be
       0.005876079 0.15219517 -0.10845807 -0.27986994
0000c0 da 1b 57 bd ba 2b 88 be ff 99 2e bd 7a 6c cf 3d
       -0.052516796 -0.2659586 -0.04262733 0.10128112
0000d0 ec f0 4f 3e d9 90 59 be d4 a2 8f bd 49 b6 25 be
       0.20306748 -0.21246661 -0.07013479 -0.16182818
0000e0 fe f3 15 be 36 22 20 be b4 1d b8 3e 6e 6e 78 3e
       -0.14643857 -0.1563805 0.35960162 0.24260876
0000f0 d0 eb 95 3e 48 6c 82 3d d0 03 c9 bd c0 f4 84 3b
       0.29281473 0.06368309 -0.0981518 0.004057497
000100 eb e1 4a 3e 3e fc fb 3d 94 e9 8e 3e 05 b7 10 3e
       0.19812743 0.12303971 0.2791258 0.14132316
000110 3b c3 4a 3e 28 d9 c3 3c 97 f8 8e 3d 33 84 51 be
       0.19801037 0.02390726 0.069810085 -0.20460586
000120 fc 2e de bd 6e 68 65 be 6f 7c 5d be 05 46 88 be
       -0.10848805 -0.22403118 -0.21629499 -0.2661592
000130 dc 67 b4 bd 54 86 7e ba 52 bc 7e be e4 a3 1a 3e
       -0.08808872 -0.00097093475 -0.24876526 0.15101582
000140 12 5b 51 3d ae d6 47 be 8f 82 af 3d 2d 06 4c bd
       0.051112242 -0.19515488 0.08569824 -0.049810577
000150 52 77 85 3c ef 80 86 bb a2 2a be bd 09 04 11 3e
       0.016292248 -0.0041047256 -0.09285475 0.14161696
000160 97 dc 98 3e 66 73 34 be 55 4b 96 3d 15 5c 91 3e
       0.29855797 -0.17622146 0.07338587 0.28390566
000170 74 6a 89 3d 9c 7c 8a be c0 54 23 bd 92 7b 58 bd
       0.067097574 -0.27048194 -0.039875746 -0.05285222
000180 8f 94 00 be 3b c4 44 3d c1 43 8f 3e 7e 46 05 3e
       -0.1255667 0.048038702 0.2798138 0.13015172
000190 30 0a 01 3e 7a b8 38 be fa 1b af be 82 56 aa bc
       0.12601542 -0.18039122 -0.34201032 -0.020793203
0001a0 6f 46 f5 3d d7 4e 99 be 32 56 81 be 54 63 9d 3c
       0.11976325 -0.29942963 -0.25261074 0.019212402
0001b0 10 b3 03 be 6a fc 11 3e 82 fd 4d 3e 53 02 68 be
       -0.12861276 0.14256445 0.20116237 -0.22657137
0001c0 46 8c ad bd 04 a0 d0 3c b9 58 3e be d4 d3 e4 3b
       -0.08474021 0.025466926 -0.18588533 0.0069832597
0001d0 85 52 c4 ba 5e f5 a0 bd bb 1c 04 bd 37 a4 b5 bb
       -0.0014978206 -0.078593 -0.032253962 -0.0055432576
0001e0 0e 95 80 bd c2 14 78 be 46 f8 c1 3d ef 2d 54 3e
       -0.0627843 -0.24226668 0.094711825 0.20720647
0001f0 16 02 a7 bc c2 dd fa 3d 60 36 85 bc a5 65 3f be
       -0.020386737 0.12249328 -0.01626128 -0.18691118

bias f4 [8]
000000 cf e6 a4 3e 7f 37 9a be 43 87 83 3e f5 9d 44 be
       0.32207343 -0.30120465 0.25689134 -0.19200881
000010 f2 b6 f8 3d a6 d4 46 3e 2c 71 6d 3e 15 95 8b 3e
       0.12144269 0.19417056 0.23187703 0.27262178
